…
 input_size = i\n        \n        all_layers.append(nn.Linear(layers[-1], output_size))\n        self.layers = nn.Sequential(*all_layers)\n    \n    def forward(self, x_categorical):\n        embeddings = []\n        for i, e in enumerate(self.all_embeddings):\n            embeddings.append(e(x_categorical[:,i]))\n        x = torch.cat(embeddings, 1)\n        x = self.embedding_dropout(x)\n        x = self.layers(x)\n        return x\n\nmodel = Model(categorical_embedding_sizes, 4, [200, 100, 50], p = 0.4)\nprint(model)\n~~~\n\n~~~python Out[8]\nModel(\n  (all_embeddings): ModuleList(\n    (0): Embedding(4, 2)\n    (1): Embedding(4, 2)\n    (2): Embedding(4, 2)\n    (3): Embedding(3, 2)\n    (4): Embedding(3, 2)\n    (5): Embedding(3, 2)\n  )\n  (embedding_dropout): Dropout(p=0.4, inplace=False)\n  (layers): Sequential(\n    (0): Linear(in_features=12, out_features=200, bias=True)\n    (1): ReLU(inplace=True)\n    (2): BatchNorm1d(200, eps=1e-05, momentum=0.1, affine=True, track_running_stats=True)\n    (3): Dropout(p=0.4, inplace=False)\n    (4): Linear(in_features=200, out_features=100, bias=True)\n    (5): ReLU(inplace=True)\n    (6): BatchNorm1d(100, eps=1e-05, momentum=0.1, affine=True, track_running_stats=True)\n    (7): Dropout(p=0.4, inplace=False)\n    (8): Linear(in_features=100, out_features=50, bias=True)\n    (9): ReLU(inplace=True)\n    (10): BatchNorm1d(50, eps=1e-05, momentum=0.1, affine=True, track_running_stats=True)\n    (11): Dropout(p=0.4, inplace=False)\n    (12): Linear(in_features=50, out_features=4, bias=True)\n  )\n)\n~~~\n\n---\n\n# Training Options Setup\n\n~~~python In[9]\nloss_function = nn.CrossEntropyLoss()\noptimizer = torch.optim.Adam(model.parameters(), lr = 0.001)\n\nif torch.cuda.is_available(): # CUDA\n    device = torch.device(\"cuda\")\nelif torch.backends.mps.is_available(): # Apple Silicon\n    device = torch.device(\"mps\")\nelse:\n    device 
…
